…
    "output": "Suppose we have an online algorithm with a good mistake bound, such as the Perceptron\nalgorithm. Can we use it to get a guarantee in the distributional (batch) learning setting? Intuitively, the answer should be yes since the online setting is only harder.",
    "source": "book_fods",
    "section_title": "5.9 Online to Batch Conversion"
  },
  {
    "instruction": "What is 10. deep learning in data science?",
    "input": "",
    "output": "In[39]: summary(mnist_model,\ninput_data=X_,\ncol_names=['input_size',\n'output_size',\n'num_params'])\nOut[39]:=====================================================================\nLayer (type:depth-idx) Input Shape Output Shape Param #\n=====================================================================\nMNISTModel [256, 1, 28, 28] [256, 10] --\nSequential: 1-1 [256, 1, 28, 28] [256, 10] --\nSequential: 2-1 [256, 1, 28, 28] [256, 256] --\nFlatten: 3-1 [256, 1, 28, 28] [256, 784] --\nLinear: 3-2 [256, 784] [256, 256] 200,960\nReLU: 3-3 [256, 256] [256, 256] --\nDropout: 3-4 [256, 256] [256, 256] --\nSequential: 2-2 [256, 256] [256, 128] --\nLinear: 3-5 [256, 256] [256, 128] 32,896\nReLU: 3-6 [256, 128] [256, 128] --\nDropout: 3-7 [256, 128] [256, 128] --\nLinear: 2-3 [256, 128] [256, 10] 1,290\n=====================================================================\nTotal params: 235,146\nTrainable params: 235,146\nHavingsetupboththemodelandthedatamodule,fittingthismodelis\nnow almost identical to the Hitters example. In contrast to our regression\nmodel, here we will use the SimpleModule.classification() method which\nSimpleModule. uses the cross-entropy loss function instead of mean squared error.",
…
